…
2024-03-18 09:47:03 [DEBUG]: findfont: score(FontEntry(fname='C:\\WINDOWS\\Fonts\\georgiaz.ttf', name='Georgia', style='italic', variant='normal', weight=700, stretch='normal', size='scalable')) = 11.335
2024-03-18 09:47:03 [DEBUG]: findfont: Matching sans\-serif:style=normal:variant=normal:weight=normal:stretch=normal:size=12.0 to DejaVu Sans ('C:\\Users\\nicko\\pythonProject22\\lib\\site-packages\\matplotlib\\mpl-data\\fonts\\ttf\\DejaVuSans.ttf') with score of 0.050000.
2024-03-18 09:47:04 [DEBUG]: Model Summary:
Model: "sequential"
_________________________________________________________________
 Layer (type)                Output Shape              Param #   
=================================================================
 vgg16 (Functional)          (None, 16, 16, 512)       14714688  
                                                                 
 conv2d (Conv2D)             (None, 16, 16, 256)       1179904   
                                                                 
 batch_normalization (Batch  (None, 16, 16, 256)       1024      
 Normalization)                                                  
                                                                 
 max_pooling2d (MaxPooling2  (None, 5, 5, 256)         0         
 D)                                                              
                                                                 
 conv2d_1 (Conv2D)           (None, 5, 5, 128)         295040    
                                                                 
 batch_normalization_1 (Bat  (None, 5, 5, 128)         512       
 chNormalization)                                                
                                                                 
 max_pooling2d_1 (MaxPoolin  (None, 1, 1, 128)         0         
 g2D)                                                            
                                                                 
 flatten (Flatten)           (None, 128)               0         
                                                                 
 batch_normalization_2 (Bat  (None, 128)               512       
 chNormalization)                                                
                                                                 
 dense (Dense)               (None, 256)               33024     
                                                                 
 dropout (Dropout)           (None, 256)               0         
                                                                 
 dense_1 (Dense)             (None, 1)                 257       
                                                                 
=================================================================
Total params: 16224961 (61.89 MB)
Trainable params: 1509249 (5.76 MB)
Non-trainable params: 14715712 (56.14 MB)
_________________________________________________________________

2024-03-18 09:55:06 [DEBUG]: Classification Report:
2024-03-18 09:55:06 [DEBUG]:               precision    recall  f1-score   support
…
